exercise_classifier.pth (torch, 28672 bytes, 6 tensors)

fc1.weight f4 [64, 66]
-0.0678788 -0.037582632 0.004909777 0.11726108 0.010309708 0.11609552 -0.07851352 0.12057455
-0.066156976 -0.041805107 -0.0096862735 0.0018895121 -0.10397586 0.107989594 -0.11514618 0.019886917
-0.14065129 0.033988055 0.049808115 -0.04727134 -0.03132653 0.10263614 -0.014421371 0.027150523
0.09688743 -0.005456421 -0.04619139 0.04153119 -0.09807393 -0.054520894 -0.11729545 -0.042329427
-0.044796526 -0.08211474 0.042440053 0.11168824 -0.082389124 0.033576675 0.07933607 0.08821231
-0.14871846 0.11134859 0.010945219 0.05003384 -0.0912221 -0.03979137 0.08889882 0.072054245
0.022049535 -0.0689824 0.024589332 0.05270891 0.0745769 -0.13418877 -0.09096926 0.07400408
0.11523409 -0.07600896 0.05329756 -0.00032989355 -0.014569937 0.065482244 0.08384735 0.036424365
0.059882265 0.094158456 -0.08995085 -0.071337864 -0.060383108 0.08826316 0.04684009 0.05046656
-0.13410944 0.10203438 -0.117811866 -0.005152447 -0.008976626 0.04958588 -0.10218907 -0.0241446
-0.10321839 0.082170926 0.04683016 -0.07259147 -0.060296424 -0.0057753334 -0.020895535 0.097071044
0.036831316 0.014498727 0.08215303 -0.019471357 0.028441679 0.02055015 -0.07751988 0.011945012
-0.10783622 -0.054066416 0.09582075 -0.052995544 0.013327753 -0.14121933 0.024425691 -0.018225405
-0.1286939 0.101058386 -0.12410441 0.06964812 0.047909457 0.07103939 -0.03056655 -0.113673985
-0.113544405 0.06931143 0.09389803 -0.0906058 -0.06469765 -0.13044485 0.013153711 -0.006210148
-0.10277811 -0.015429466 -0.0069800545 -0.07772174 0.07922236 -0.08231989 -0.05223897 0.062125113
0.06772171 0.013073198 -0.037413206 -0.0017870995 -0.021567274 -0.1128525 0.11302717 0.07219673
-0.029556632 -0.04906208 -0.05273498 -0.11384787 0.07595598 -0.040268935 0.059761044 0.07829142
-0.1033222 -0.02018233 -0.11077634 -0.011249783 0.07405451 0.081193626 -0.024384715 0.03151647
-0.06372444 0.069568254 0.08323682 -0.019403702 0.08064327 0.034075264 -0.028448325 -0.04622541
0.10198354 0.05179377 -0.012236872 0.016593276 -0.08513435 -0.049245227 0.042182025 0.08265076
-0.020802723 -0.08636011 -0.026129948 -0.07576668 -0.0015622443 0.01615761 0.058957517 -0.10902872
-0.12028336 0.077257104 -0.037213158 -0.031843055 -0.08368146 0.048537556 -0.08900547 -0.008127503
0.087110974 -0.037273765 -0.093430705 -0.11874965 0.05358714 0.0039495407 -0.004756928 0.03320323
-0.0820615 -0.023584815 -0.046160415 -0.08386072 -0.049985386 0.07611016 -0.026218746 -0.12367018
0.08408124 -0.111171745 0.012834908 0.059999403 0.08934578 -0.0019950527 0.024950739 -0.123211026
0.090977706 -0.13694265 0.024986112 0.03945187 0.13506514 -0.12389455 0.050331432 0.07871772
-0.060589876 0.007667627 0.088514045 0.050716534 0.048280723 0.043540776 0.100689024 -0.113073215
-0.021919765 -0.0771154 0.11081214 0.09337602 -0.08254555 0.058596715 -0.07286593 0.114315934
0.020382155 0.12977712 -0.034407835 0.047175348 0.11501791 0.050538182 0.103684954 -0.06688646
0.10442315 0.056256738 0.0890654 0.07400644 -0.009379902 0.14660048 0.12922709 0.09128692
0.113936506 -0.06528824 0.11926029 0.13703507 0.041872296 0.12928192 0.14005336 0.14852011
00000000: 0a04 8bbd 3ff0 19bd 32e2 a03b 9426 f03d
00000010: 0dea 283c 7dc3 ed3d b2cb a0bd caef f63d
00000020: 4f7d 87bd d53b 2bbd 2db3 1ebc 81a9 f73a
00000030: 4cf1 d4bd a629 dd3d c3d1 ebbd e3e9 a23c
00000040: e406 10be 0f37 0b3d 9803 4c3d 989f 41bd
00000050: 3f50 00bd e632 d23d 9d47 6cbc c66a de3c
00000060: eb6c c63d c7cb b2bb 2f33 3dbd 9c1c 2a3d
00000070: fcda c8bd 4d51 5fbd 9938 f0bd 9f61 2dbd
00000080: 907c 37bd c62b a8bd 9fd5 2d3d cebc e43d
00000090: a1bb a8bd b287 093d f37a a23d a8a8 b43d
000000a0: a749 18be bb0a e43d 9353 333c 49f0 4c3d
000000b0: a7d2 babd 47fc 22bd 9610 b63d 2d91 933d
000000c0: 3aa1 b43c a546 8dbd 916f c93c 4ce5 573d
000000d0: c6bb 983d c868 09be 174e babd 738f 973d
000000e0: daff eb3d 96aa 9bbd 8b4e 5a3d 90f5 acb9
000000f0: bfb6 6ebc 8e1b 863d 29b8 ab3d b731 153d
00000100: 1b47 753d 26d6 c03d 2738 b8bd 9619 92bd
00000110: 4754 77bd 51c3 b43d 65db 3f3d 06b6 4e3d
00000120: fc53 09be 67f7 d03d 5947 f1bd dcd5 a8bb
00000130: b312 13bc 901a 4b3d 8148 d1bd e5ca c5bc
00000140: 2a64 d3bd 3b49 a83d fbd0 3f3d d6aa 94bd
00000150: 62f9 76bd 023f bdbb 1d2d abbc 2fcd c63d
00000160: 6fdc 163d 128c 6d3c d93f a83d 6582 9fbc
00000170: 86fe e83c ca58 a83c bec2 9ebd 03b5 433c
00000180: 3cd9 dcbd bf74 5dbd ab3d c43d db11 59bd
00000190: a65c 5a3c cd9b 10be 6318 c83c 724d 95bc
000001a0: 55c8 03be b3f7 ce3d 742a febd aca3 8e3d
000001b0: b53c 443d 1a7d 913d b466 fabc e8cd e8bd
000001c0: f889 e8bd 27f3 8d3d 9c4d c03d 898f b9bd
000001d0: 3480 84bd 5693 05be aa82 573c 7f7e cbbb
000001e0: 547d d2bd dfcb 7cbc f1b8 e4bb 932c 9fbd
000001f0: 553f a23d 5597 a8bd 88f8 55bd e776 7e3d
00000200: aeb1 8a3d f730 563c 973e 19bd 1c3d eaba
00000210: daad b0bc 361f e7bd ca7a e73d e1db 933d
00000220: c020 f2bc 52f5 48bd a200 58bd 1229 e9bd
00000230: cf8e 9b3d 0af1 24bd ffc7 743d 4157 a03d
00000240: 979a d3bd 6a55 a5bc b5de e2bd 0351 38bc
00000250: e4a9 973d d848 a63d 74c2 c7bc 6a17 013d
00000260: f681 82bd cd79 8e3d 1178 aa3d 83f4 9ebc
00000270: 4c28 a53d 8192 0b3d 760c e9bc db56 3dbd
00000280: bfdc d03d b425 543d 297d 48bc 9fee 873c
00000290: eb5a aebd 5db5 49bd 0fc7 2c3d cd44 a93d
000002a0: 796a aabc 92dd b0bd 790e d6bc 902b 9bbd
000002b0: 38c4 ccba f75c 843c 707d 713d 734a dfbd
000002c0: 1f57 f6bd f938 9e3d d36c 18bd dd6d 02bd
000002d0: 2f61 abbd 51cf 463d 8048 b6bd 3829 05bc
000002e0: 3d67 b23d 60ac 18bd 9958 bfbd 0433 f3bd
000002f0: 307e 5b3d 266b 813b 01e0 9bbb 1c00 083d
00000300: dc0f a8bd f134 c1bc b412 3dbd 2bbf abbd
00000310: 7abd 4cbd a5df 9b3d b2c8 d6bc cb46 fdbd
00000320: c932 ac3d 03ae e3bd 8249 523c efc1 753d
00000330: ecfa b63d 6ebf 02bb 7e65 cc3c 1056 fcbd
00000340: 8552 ba3d b23a 0cbe adaf cc3c 4998 213d
00000350: 844e 0a3e 6dbc fdbd 5528 4e3d c236 a13d
00000360: 172d 78bd b840 fb3b da46 b53d 24bc 4f3d
00000370: 02c2 453d d057 323d 0c36 ce3d ee92 e7bd
00000380: 1491 b3bc aeee 9dbd 7af1 e23d ed3b bf3d
00000390: a40d a9bd 1c03 703d bc3a 95bd 791e ea3d
000003a0: 7af8 a63c 4be4 043e 3bef 0cbd f03a 413d
000003b0: 838e eb3d 2001 4f3d c758 d43d c5fb 88bd
000003c0: cedb d53d 776d 663d ec67 b63d b090 973d
000003d0: 29ae 19bc 701e 163e 1b54 043e a3f4 ba3d
000003e0: 8b57 e93d d7b5 85bd bd3e f43d ec52 0c3e
000003f0: 4982 2b3d 7b62 043e 266a 0f3e a815 183e

fc1.bias f4 [64]
0.008673422 0.0760551 0.013652063 -0.016250862 0.06861527 0.054012552 -0.055581227 0.07117536
0.11542737 -0.027742147 0.029994532 -0.037781097 0.066915676 0.12685215 0.026883125 -0.024308246
-0.10388158 0.029748047 -0.071141794 -0.07123917 0.047922164 -0.001463986 -0.047348678 -0.04135653
-0.06862927 -0.008763575 0.036562543 0.081821844 -0.0011174092 0.026767584 -0.036162514 -0.001928733
-0.10917714 0.14587466 -0.00020477053 -0.06619928 -0.03869638 0.12179365 0.062574215 -0.0746772
-0.091754824 -0.04065326 -0.11351792 0.07291274 -0.05797092 0.039264202 0.11709029 0.018467993
-0.10054821 0.06251831 0.10163668 -0.052264668 -0.037370194 0.05999281 0.09315542 0.03529857
-0.04018446 -0.12129649 -0.05631731 -0.07211836 0.087406136 -0.06892958 -0.02961731 -0.121470705
00000000: f81a 0e3c c7c2 9b3d e7ac 5f3c 8720 85bc
00000010: 2a86 8c3d 443c 5d3d 24a9 63bd 63c4 913d
00000020: 2f65 ec3d 8043 e3bc 18b7 f53c 5ac0 1abd
00000030: 160b 893d 88e5 013e 003a dc3c 1622 c7bc
00000040: debf d4bd 2db2 f33c cab2 91bd d8e5 91bd
00000050: 084a 443d 38e3 bfba b0f0 41bd 7765 29bd
00000060: 818d 8cbd 1995 0fbc 9bc2 153d 3692 a73d
00000070: 0876 92ba b147 db3c 251f 14bd 8acd fcba
00000080: 4498 dfbd 2b60 153e acb7 56b9 7d93 87bd
00000090: 1880 1ebd f36e f93d e926 803d 5cf0 98bd
000000a0: f4e9 bbbd 0884 26bd 157c e8bd 4653 953d
000000b0: ea72 6dbd 80d3 203d 09cd ef3d 304a 973c
000000c0: 38ec cdbd 9a09 803d e426 d03d 7a13 56bd
000000d0: 7d11 19bd 05bb 753d 45c8 be3d 3c95 103d
000000e0: 7698 24bd 4b6a f8bd fbac 66bd cab2 93bd
000000f0: fd01 b33d f42a 8dbd 00a0 f2bc a2c5 f8bd

fc2.weight f4 [32, 64]
0.09759268 -0.08752933 0.12062827 -0.091144666 -0.001806885 0.08067529 0.029351428 -0.043113038
-0.1180578 -0.07594706 -0.013038963 0.017468467 0.010206103 0.012236863 0.07427782 -0.07625607
-0.039459154 -0.103964135 -0.09431426 -0.021382049 0.03180808 0.111136764 -0.008533984 0.045227677
-0.06404239 -0.031193525 0.074633926 0.05983165 -0.12046972 -0.028292358 0.056603447 0.09705958
-0.0022556037 0.12235129 0.112839565 0.058084905 -0.031886026 -0.10993944 -0.0078305155 -0.09631267
-0.051508322 0.034477666 0.116973504 -0.07861216 -0.118741855 0.056991696 0.035607934 0.07158597
-0.08088972 0.062007442 -0.025607377 0.0092841685 0.11407827 -0.08232087 0.07450391 0.09726523
-0.023423746 0.068960875 -0.123135015 0.026643008 0.08784157 0.072800726 0.056211203 -0.043465525
0.06539531 -0.11252533 -0.0054928362 -0.056712642 -0.023631543 0.008516863 -0.053822324 -0.12452096
-0.03929104 0.118858755 -0.07705848 -0.044213176 0.057138428 -0.103238955 -0.018541023 -0.037521765
-0.12137605 0.039595023 0.09875816 0.08044577 0.0017236918 0.082122356 -0.07147463 0.07289711
0.03527227 -0.070865884 -0.052609727 0.121292174 0.016659647 0.064456016 -0.02050379 -0.0056378096
0.09192249 -0.08217898 -0.08844687 0.05109474 0.033745825 0.11242607 -0.08046125 -0.005407095
-0.069802 0.107803226 0.08818242 -0.032555193 0.11770366 0.03432928 -0.03356871 -0.1209324
0.046879813 -0.115641505 -0.002913177 -0.036092654 -0.11620636 0.048529282 -0.115492254 -0.09950368
0.06584786 -0.021956801 0.059257135 0.048461556 0.06928119 -0.003106296 -0.0019645542 0.0126045495
0.095424965 -0.08937507 0.10621524 0.022749769 -0.06751044 0.08068068 0.02599296 -0.010468325
0.053328585 -0.123376146 0.1179916 0.099828884 -0.07089564 -0.010571734 0.059186224 -0.04915894
0.06779364 0.093231186 0.118177146 0.09288013 -0.059958503 0.060635697 0.046543334 0.055921387
-0.037027806 -0.06779883 -0.07660636 -0.06195402 -0.04898979 0.042581055 0.09330239 -0.019543359
0.04703065 -0.10399361 0.0244012 0.03506346 -0.049952786 -0.063586816 -0.09896366 -0.10107247
-0.010216086 0.12012561 0.012573332 -0.014730033 0.114155345 0.12386197 -0.110482834 0.050611928
-0.03114847 -0.011881504 -0.011462674 0.046696443 -0.07738178 0.07631293 -0.037662107 0.06390071
0.0858708 -0.039016023 -0.025244847 -0.12311959 -0.0956975 0.121004 -0.089425504 0.09488165
0.034875397 0.11445111 0.06177008 -0.044715896 -0.072668076 0.039264336 -0.09387742 0.039512068
-0.08791182 0.124424085 0.07969499 0.06749056 0.008107707 -0.1120372 -0.062062945 0.0020066497
-0.061940756 -0.03596005 0.09670846 -0.096031606 0.07543777 0.055157617 -0.09291126 0.1252981
0.013157323 0.07672361 -0.046764303 -0.119650826 0.10629965 0.08409287 -0.068002805 0.031391643
-0.032141224 0.112094685 0.035374023 -0.044662245 0.107324 -0.10268535 0.027201397 -0.09070716
-0.05109158 -0.04257776 0.050282344 -0.03941764 0.043379523 -0.088809535 -0.007883004 -0.067519546
0.07836309 0.043539476 -0.119368196 0.05929832 0.008454152 0.052615628 0.003405422 -0.07051021
0.056120083 0.07156615 -0.057280578 -0.10839322 0.08911721 -0.026912361 0.09763417 -0.0780105
00000000: acde c73d 9442 b3bd f40b f73d 0eaa babd
00000010: 00d5 ecba 1639 a53d 6872 f03c 4c97 30bd
00000020: 4ac8 f1bd 228a 9bbd 60a1 55bc 081a 8f3c
00000030: 8037 273c 207d 483c f81e 983d 242c 9cbd
00000040: ec9f 21bd 26eb d4bd d627 c1bd 6829 afbc
00000050: 3049 023d ac9b e33d 20d2 0bbc a840 393d
00000060: a828 83bd 9089 ffbc acd9 983d 0812 753d
00000070: d4b8 f6bd 60c5 e7bc 04d9 673d 2cc7 c63d
00000080: c0d2 13bb 5093 fa3d 6e18 e73d 70ea 6d3d
00000090: ec9a 02bd ee27 e1bd 904b 00bc 943f c5bd
000000a0: 64fa 52bd 7438 0d3d ce8f ef3d 6aff a0bd
000000b0: ee2e f3bd 2070 693d a0d9 113d aa9b 923d
000000c0: 82a9 a5bd 84fb 7d3d 90c6 d1bc a01c 183c
000000d0: dea1 e93d d897 a8bd 8295 983d fe32 c73d
000000e0: 28e3 bfbc 5c3b 8d3d 362e fcbd 7042 da3c
000000f0: 48e6 b33d 8c18 953d b83d 663d e808 32bd
00000100: faed 853d ae73 e6bd 40fd b3bb 844b 68bd
00000110: f096 c1bc 508a 0b3c cc74 5cbd d804 ffbd
00000120: a4ef 20bd 386c f33d d6d0 9dbd e018 35bd
00000130: fc09 6a3d f26e d3bd 58e3 97bc 6cb0 19bd
00000140: 0294 f8bd 642e 223d b841 ca3d c0c0 a43d
00000150: 80ed e13a c42f a83d 4a61 92bd 144b 953d
00000160: a879 103d 2222 91bd 4c7d 57bd 0868 f83d
00000170: d079 883c 8401 843d 90f7 a7bc 60bd b8bb
00000180: dc41 bc3d 744d a8bd a223 b5bd b848 513d
00000190: 1039 0a3d a43f e63d dec8 a4bd 002e b1bb
000001a0: 5af4 8ebd f0c7 dc3d fc98 b43d 9858 05bd
000001b0: 9e0e f13d dc9c 0c3d 587f 09bd 68ab f7bd
000001c0: 0c05 403d 74d5 ecbd 00eb 3ebb e4d5 13bd
000001d0: 9afd edbd a4c6 463d 3487 ecbd 96c8 cbbd
000001e0: 3edb 863d c0de b3bc 9cb7 723d a07f 463d
000001f0: 4ce3 8d3d 0093 4bbb c0bf 00bb 5083 4e3c
00000200: 2a6e c33d 470a b7bd 6087 d93d b95d ba3c
00000210: ea42 8abd ea3b a53d 30ef d43c 5683 2bbc
00000220: 136f 5a3d a2ac fcbd 94a5 f13d 1673 cc3d
00000230: bc31 91bd 1135 2dbc 416d 723d e25a 49bd
00000240: 64d7 8a3d feef be3d dc06 f23d f037 be3d
00000250: 0c97 75bd 235d 783d 39a4 3e3d d30d 653d
00000260: 78aa 17bd 1dda 8abd cce3 9cbd 80c3 7dbd
00000270: 85a9 48bd 7969 2e3d 5315 bf3d 6519 a0bc
00000280: 36a3 403d 9afa d4bd 06e5 c73c b49e 0f3d
00000290: 4b9b 4cbd ce39 82bd 76ad cabd 15ff cebd
000002a0: 5f61 27bc 6a04 f63d 6000 4e3c 3d56 71bc
000002b0: 47ca e93d 58ab fd3d d344 e2bd 744e 4f3d
000002c0: 132b ffbc a4aa 42bc f0cd 3bbc c544 3f3d
000002d0: 577a 9ebd f449 9c3d 9543 1abd 60de 823d
000002e0: 08dd af3d 44cf 1fbd 48ce cebc 2026 fcbd
000002f0: 0dfd c3bd f2d0 f73d b824 b7bd 4f51 c23d
00000300: 81d9 0e3d 5865 ea3d a002 7d3d 0428 37bd
00000310: 00d3 94bd a4d3 203d ce42 c0bd 68d7 213d
00000320: 1d0b b4bd 0ed2 fe3d 2037 a33d 7e38 8a3d
00000330: 30d6 043c c273 e5bd b735 7ebd ff81 033b
00000340: 97b5 7dbd d84a 13bd 160f c63d 38ac c4bd
00000350: 1e7f 9a3d f4ec 613d 4248 bebd 254e 003e
00000360: d091 573c 4521 9d3d ed8b 3fbd 7e0b f5bd
00000370: a2b3 d93d e238 ac3d 0e45 8bbd 8694 003d
00000380: 84a6 03bd e691 e53d 5ae4 103d c2ef 36bd
00000390: afcc db3d b24c d2bd 77d5 de3c adc4 b9bd
000003a0: 6845 51bd 0466 2ebd dcf4 4d3d 6474 21bd
000003b0: baae 313d c6e1 b5bd b727 01bc b047 8abd
000003c0: d47c a03d 7356 323d 5077 f4bd cce2 723d
000003d0: 4983 0a3c 7c83 573d 802d 5f3b a867 90bd
000003e0: 2cde 653d 4691 923d 0a9f 6abd 44fd ddbd
000003f0: 1583 b63d 5077 dcbc 6cf4 c73d f8c3 9fbd

fc2.bias f4 [32]
-0.07504323 0.116949245 0.08887589 -0.05196953 0.072782636 -0.055014413 0.03606412 0.051093463
-0.11045492 -0.057075396 0.0062000137 -0.07481878 -0.11376978 -0.06277556 0.09513838 -0.09406084
0.0073908297 -0.054778904 -0.083357304 -0.009324327 0.064145476 0.020512097 -0.12775527 0.01270593
0.058370087 0.0286104 0.029661354 0.11747865 -0.01213257 -0.013140279 -0.020132687 0.066363126
00000000: 44b0 99bd 1683 ef3d 9004 b63d 00de 54bd
00000010: 100f 953d cb56 61bd f8b7 133d 6147 513d
00000020: 3036 e2bd e4c7 69bd 7c29 cb3b 973a 99bd
00000030: 2100 e9bd 7990 80bd e9d7 c23d f8a2 c0bd
00000040: c62e f23b d85f 60bd 3cb7 aabd 10c5 18bc
00000050: b45e 833d fc08 a83c 47d2 02be 882c 503c
00000060: 7915 6f3d 5c60 ea3c 5efc f23c a598 f03d
00000070: b0c7 46bc 534a 57bc 4eed a4bc 64e9 873d

fc3.weight f4 [4, 32]
0.099184856 -0.059170425 0.021980323 0.042563837 -0.14196849 0.12723611 -0.01814953 -0.11064107
-0.05717551 0.13152449 0.07049196 -0.06559116 0.13612786 -0.1067716 0.0014210732 0.033773452
-0.106903754 -0.044766277 0.13762026 -0.08400286 0.10061739 -0.067542985 0.024857737 0.094453484
0.17776039 -0.033195943 -0.001003042 0.10711382 -0.07772949 -0.19017497 -0.032118652 -0.10909691
0.08276002 -0.16627432 0.021178126 -0.02306938 0.20040973 0.08767327 0.16942087 -0.03916181
-0.063912764 -0.0055366904 -0.04247753 0.012486061 -0.040176757 -0.010263109 0.15905234 0.073912844
0.098039456 0.09556259 -0.016702296 -0.031833425 0.03692465 0.06465142 -0.101678215 -0.024904788
0.17741536 -0.09471189 0.1732889 -0.195154 0.058803573 0.008734383 0.14436015 -0.088107355
-0.00015945733 -0.12208536 0.080634445 0.11549211 0.044520758 -0.05757759 -0.028080057 -0.033275045
0.000104904175 -0.060844243 -0.03844919 -0.006073986 -0.15475121 -0.077968426 0.0019968562 -0.09952681
-0.09186169 0.11418052 0.06661797 -0.023322761 -0.1054341 0.14141567 0.121678494 0.032291297
0.059043054 0.14151274 -0.14227329 -0.11804262 -0.160906 -0.052645545 -0.1789822 -0.064329006
-0.15031552 0.08285116 -0.04643189 0.09408145 -0.041937854 -0.054967903 -0.14326678 0.13103503
0.04079908 -0.04848841 0.09929221 0.07742615 0.074179955 -0.062574826 0.0933017 -0.096569516
0.123378836 0.03462614 -0.12499466 0.044245407 -0.1315623 0.020273823 -0.14774093 -0.15542012
0.045814965 0.080635905 -0.18897025 0.13094941 0.016908243 0.22880304 0.19742621 -0.07925946
00000000: 6e21 cb3d b05c 72bd 1410 b43c 6b57 2e3d
00000010: 3060 11be 2f4a 023e 53ae 94bc c997 e2bd
00000020: de30 6abd 5bae 063e 175e 903d a854 86bd
00000030: 1a65 0b3e 12ab dabd 4e43 ba3a 0856 0a3d
00000040: 5bf0 dabd d85c 37bd 53ec 0c3e b109 acbd
00000050: 7d10 ce3d fa53 8abd 74a2 cb3c d470 c13d
00000060: d206 363e 78f8 07bd 8178 83ba 7e5e db3d
00000070: a430 9fbd 3abd 42be d98e 03bd 336e dfbd
00000080: 167e a93d d143 2abe c07d ad3c fffb bcbc
00000090: 3538 4d3e 0b8e b33d aa7c 2d3e 2268 20bd
000000a0: b2e4 82bd 206d b5bb ebfc 2dbd 5692 4c3c
000000b0: 6290 24bd 9926 28bc 9ede 223e 9e5f 973d
000000c0: e9c8 c83d 52b6 c33d 41d3 88bc c463 02bd
000000d0: 4d3e 173d f767 843d ab3c d0bd 2005 ccbc
000000e0: 5fac 353e 4ff8 c1bd a572 313e 73d6 47be
000000f0: 04dc 703d a81a 0f3c 26d3 133e a171 b4bd
00000100: 0034 27b9 e407 fabd ac23 a53d 2187 ec3d
00000110: 665b 363d 7bd6 6bbd 2608 e6bc 6a4b 08bd
00000120: 0000 dc38 d037 79bd e67c 1dbd 4a08 c7bb
00000130: 1a77 1ebe e9ad 9fbd b0dd 023b b6d4 cbbd
00000140: fb21 bcbd 7ad7 e93d 016f 883d 600f bfbc
00000150: d5ed d7bd 45cf 103e 9332 f93d e143 043d
00000160: 21d7 713d b7e8 103e 17b0 11be 54c0 f1bd
00000170: 8bc4 24be dba2 57bd 1c47 37be edbe 83bd
00000180: 50ec 19be dead a93d 5e2f 3ebd c6ad c03d
00000190: 07c7 2bbd 0626 61bd 87b4 12be 0c2e 063e
000001a0: f01c 273d c89b 46bd b759 cb3d 9a91 9e3d
000001b0: a9eb 973d 3b27 80bd f614 bf3d 3dc6 c5bd
000001c0: 0bae fc3d 24d4 0d3d 33fd ffbd ac3a 353d
000001d0: 44b8 06be 4a15 a63c 6649 17be 7426 1fbe
000001e0: 79a8 3b3d 7024 a53d 6b81 41be 9a17 063e
000001f0: 2883 8a3c 584b 6a3e 192a 4a3e c952 a2bd

fc3.bias f4 [4]
0.039956156 0.14616898 -0.081648976 0.13507752
00000000: 11a9 233d 52ad 153e 9437 a7bd c351 0a3e
